PyTorch_forNLP/models/CNN.pth (torch_old, 249562 bytes, 10 tensors)

conv1.weight f4 [6, 3, 5, 5]
000000 8e d6 3f bd 70 91 43 bc 86 3c 8d 3d 40 5d 48 3d
       -0.046835475 -0.0119365305 0.068963096 0.048917055
000010 a4 9a 85 bc c0 fd 34 3d 04 da a6 bc 82 54 47 bd
       -0.01630909 0.044187307 -0.02036763 -0.048664577
000020 60 b3 13 3d 50 e2 60 3d 34 cd 7d 3d 5e 73 c3 3d
       0.036059737 0.05490333 0.061963275 0.09543489
000030 f0 f7 4c 3c 80 0c 23 3c ea 32 32 bd 48 65 59 3d
       0.012510285 0.009951711 -0.043505587 0.053075105
000040 3e 06 cf bd e6 4c 43 bd 90 64 49 3d 0a 8b 92 bd
       -0.101086125 -0.047680758 0.04916817 -0.07155426
000050 70 55 77 3d b8 86 83 bd 90 39 8b bb a8 20 87 3c
       0.060384214 -0.0642218 -0.0042488053 0.016495064
000060 15 d0 78 bd c4 ad b8 3d 7b 29 9b bd 10 a6 91 bb
       -0.060745317 0.09017518 -0.07576271 -0.004444845
000070 f8 a9 8c 3c d0 f4 5b bc 12 a9 1c bd 88 bb 1e 3d
       0.017170891 -0.013425067 -0.038247176 0.038753062
000080 80 33 3f ba 00 d4 ee 39 ba 6d c5 bd f8 e1 4e 3d
       -0.0007293746 0.0004555285 -0.09640069 0.05050847
000090 b0 71 af bb bb 46 b7 bd e1 58 9c bd 27 62 c6 bd
       -0.005354129 -0.08949038 -0.0763414 -0.0968669
0000a0 f0 44 67 3c 00 1a 4f 3c bc c5 c0 3d 11 4b e6 bd
       0.014115557 0.012640476 0.09412715 -0.112447865
0000b0 80 26 d4 3c 80 03 6e 3b 3a ff 8b bd 04 d7 78 3d
       0.025897264 0.0036318004 -0.0683579 0.06075193
0000c0 3f e2 a3 bd 92 87 81 3d 6c 18 a7 bd 80 2a 1a 3d
       -0.080021374 0.06324686 -0.08158955 0.037638187
0000d0 00 fa cf bb 46 d8 93 bd c0 cf 08 3d 48 f9 3e 3d
       -0.006346941 -0.07218985 0.03340125 0.046624452
0000e0 10 ff ca bc e8 48 11 bd 3c df 46 3d 18 81 60 bc
       -0.024779826 -0.03546992 0.048552737 -0.013702653
0000f0 b6 72 05 bd 7a cd 86 3d 3c ef c6 bc a4 fd 8d 3d
       -0.0325801 0.0658216 -0.024283998 0.06933144
000100 66 2c c7 3d 5a 60 aa 3d 78 6d 2f 3d 00 98 15 bd
       0.09725265 0.08319159 0.042829007 -0.03652191
000110 94 29 8f bd 4e da 9d bd 92 e3 8c 3d 04 71 a3 bd
       -0.06990352 -0.07707654 0.06879343 -0.079805404
000120 d8 4a a3 bc ac 56 82 bd e0 21 87 3b 20 ef 51 3d
       -0.01993315 -0.063641876 0.0041239113 0.051253438
000130 f0 db ab 3b 70 b3 14 3d f0 03 88 3c bc 63 0f 3d
       0.0052447245 0.036303937 0.01660344 0.035007223
000140 e4 a9 aa bd 4c b0 3b 3d 58 44 2c 3d f0 ac d9 3c
       -0.08333185 0.045822427 0.042057365 0.02657172
000150 c9 b9 ac bd 1c 37 e6 bc 80 81 1b ba 24 16 18 3d
       -0.08433873 -0.02810245 -0.0005932078 0.03713049
000160 de c6 aa bd b4 45 d2 3d 80 fd 73 bb 88 1a 39 bd
       -0.08338712 0.10267201 -0.0037229955 -0.045191318
000170 82 63 d6 bd b0 11 93 3d b2 e6 b0 bd e6 c5 bc bd
       -0.10468198 0.07181108 -0.08637752 -0.09217434
000180 f8 79 39 3d c9 f9 90 bd 72 cc 6d bd ee 05 eb 3d
       0.045282334 -0.07078893 -0.058056302 0.114757404
000190 f6 d6 e5 3d 5a 42 91 bd 30 9d 6f 3d de be 99 3d
       0.11222641 -0.07092734 0.058499515 0.07507108
0001a0 6d 34 74 bd 5a 5a ce 3d 88 44 a5 3c a6 a5 e6 bd
       -0.05962031 0.10075827 0.02017428 -0.11262064
0001b0 e0 ec 6d 3c 20 5f e1 3c 62 84 18 bd a0 bc 7e bb
       0.014521807 0.02751118 -0.037235625 -0.0038869753
0001c0 c2 77 d1 3d 3a f2 a0 3d 48 7e e5 bd a0 dd 33 3c
       0.1022792 0.07858701 -0.11205727 0.0109781325
0001d0 0e ed e1 3d 07 c9 9f bd b4 a2 72 bd e0 73 da 3b
       0.11031543 -0.07802015 -0.059237197 0.0066666454
0001e0 1c 75 7c 3d c5 73 ad bd 1c 1e 9a bd c0 3c 93 ba
       0.06163512 -0.08469347 -0.07525274 -0.0011233315
0001f0 1c af 5c bd 77 3c c4 bd f6 b0 3c bd 68 5b 88 bc
       -0.053877935 -0.09581845 -0.0460672 -0.016645148
000200 5c 9c 1b bd bc c9 77 bd 14 da f4 bc e6 06 9e 3d
       -0.037990913 -0.060495123 -0.029889144 0.077161595
000210 30 d6 c9 bb 64 cc 0b 3d cc 6a 34 bd 8c 24 05 3d
       -0.0061595663 0.03413047 -0.044047162 0.032505557
000220 d8 b7 60 bd 72 c2 85 3d b8 0f 43 bd 98 ed 17 3d
       -0.054862827 0.06531228 -0.047622412 0.03709182
000230 d2 ec e4 3d 72 06 e0 bd a0 7b b2 3b 2c 01 01 3d
       0.111779824 -0.10938729 0.005446866 0.03149526
000240 d8 87 6a 3d 4c cf 4b 3d 50 c6 a5 bd 28 2e 01 bc
       0.057258457 0.04975824 -0.08094466 -0.00788454
000250 f6 86 c2 3d 2c 69 4a bd fc 84 2f 3d 20 c5 7f 3d
       0.09498398 -0.049416706 0.042851433 0.062443852
000260 60 80 e4 3d c0 cc c2 3c 46 1a 95 3d 7c e4 e4 bd
       0.11157298 0.023779273 0.07280402 -0.111763924
000270 6a 1a cc bd 89 53 eb bd 68 96 e7 3c 68 01 17 3c
       -0.099659756 -0.114905424 0.028269961 0.009216644
000280 54 bf 03 3d e0 63 0e bb 20 13 80 bb 68 c2 0c bd
       0.032164887 -0.002172701 -0.00390853 -0.034365088
000290 48 30 b2 3d 2a 71 dc bd d8 99 b9 bc f9 15 d7 bd
       0.08700615 -0.10763772 -0.022656366 -0.10502238
0002a0 c0 27 4b bb e5 b4 c6 bd ec d0 43 3d 38 d3 61 3d
       -0.0030999035 -0.09702472 0.047806665 0.055133075
0002b0 b4 9c 44 bd a0 40 79 3d 28 34 71 3d f4 7c 4d 3d
       -0.048001006 0.060852647 0.05888763 0.050167993
0002c0 ae f4 a7 3d 68 bb b4 bd d6 b3 83 bd de b7 99 3d
       0.08200966 -0.088248074 -0.06430785 0.07505773
0002d0 30 07 ed 3b 53 b1 80 bd 70 7c fd 3c f0 c4 80 bb
       0.007233523 -0.06283822 0.030943125 -0.003929727
0002e0 d0 e7 b6 3d 14 f0 e5 3d a0 da 85 bc 68 b4 67 3d
       0.089309335 0.11227432 -0.0163396 0.056568533
0002f0 fa 15 72 bd 30 3c 5b 3d a2 db 4a bd d8 39 9d bd
       -0.05910299 0.053524196 -0.049525864 -0.076770484
000300 7d 8f bf bd 70 62 2b 3d 54 aa 16 bd 4a 7a c2 bd
       -0.0935354 0.041841924 -0.03678353 -0.09495981
000310 88 f4 3d 3d 80 b1 46 bb 28 56 4b 3d 90 a6 72 bc
       0.04637578 -0.00303182 0.049642712 -0.014810219
000320 da be a6 bd e0 9c 77 3d 3e 5d 83 3d e0 fd 19 bc
       -0.08141871 0.060452342 0.06414269 -0.009398907
000330 ea b4 d4 3d 48 ba 8c bc b5 28 8f bd 63 49 d7 bd
       0.10386069 -0.01717867 -0.06990186 -0.10512044
000340 fe 6d 3a bd 08 cc 0f 3c dc ff 93 bc 61 cc c1 bd
       -0.045515053 0.008776672 -0.01806634 -0.0946281
000350 48 fe 8f bc ff 5e d9 bd b9 98 cd bd 5d b2 8f bd
       -0.017577305 -0.10613822 -0.10038895 -0.07016442
000360 7c 40 96 bc 14 75 df bd f0 8d 4e 3c a2 75 c6 bd
       -0.018341295 -0.10911003 0.012607083 -0.096904054
000370 24 1a de bd 5c 4d b6 bd d0 52 aa bd 58 1b b9 bc
       -0.1084483 -0.08901474 -0.083165765 -0.022596046
000380 98 ac 02 bc 90 e8 6e bc 5b ed ac bd 01 4b d7 bd
       -0.00797572 -0.014581814 -0.084437095 -0.10512353
000390 29 c5 67 bd 48 8e 97 bd 50 61 a1 bd 94 1a 9b bd
       -0.05658451 -0.07400185 -0.07879889 -0.07573429
0003a0 80 53 76 ba 52 e8 e8 3d b8 58 69 3d d0 fb 50 3c
       -0.0009396598 0.113724366 0.056969374 0.012755349
0003b0 ec b1 17 3d 68 4b 86 bd 35 c2 e2 bd 18 c3 68 bc
       0.037034914 -0.06557351 -0.11072198 -0.01420667
0003c0 0c 2e 28 3d c0 8f cd 3a 5c 46 4f 3d 24 b5 ac bc
       0.04105954 0.00156831 0.05060421 -0.021082468
0003d0 f0 77 a6 3c 58 d3 cc 3d 49 5d d9 bd ca a9 2e bd
       0.020320863 0.10001248 -0.10613496 -0.042642392
0003e0 2c 73 df 3d bc 9a e6 bc 6a 1e 8e bd 80 e0 19 bc
       0.10910639 -0.028149955 -0.06939395 -0.009391904
0003f0 a4 2e df bd 44 04 ca bd ac ba ae bd 94 94 03 bd
       -0.10897568 -0.09864095 -0.085316986 -0.032124117

conv1.bias f4 [6]
000000 08 f4 e0 bc a6 93 55 bd 40 09 17 bc 50 33 9d bc
       -0.027460113 -0.05214276 -0.009218514 -0.019189507
000010 b8 98 c7 3c 60 a4 4b 3c
       0.024364814 0.012429327

conv2.weight f4 [16, 6, 5, 5]
000000 10 33 a4 3b 78 8c 9e 3d a6 c8 a0 3d a0 d4 58 bc
       0.00501097 0.07741636 0.07850771 -0.0132342875
000010 c2 f0 4d bd cf 3a 4b bd 4b 94 6e bd 34 c6 a3 bd
       -0.050278433 -0.04961663 -0.058246892 -0.079967886
000020 d4 e0 a6 bd 08 d4 e0 bc 08 39 5e 3d 6c 69 5f 3d
       -0.08148351 -0.027444854 0.054253608 0.054543898
000030 e4 5a 36 3d 68 67 7c bd f2 5f 39 bd 2c a7 ad 3c
       0.044520274 -0.061622053 -0.045257516 0.021197878
000040 a8 c4 8d bd 7c 3c 95 bc dc 6b 5c 3d 86 57 1c 3d
       -0.06922275 -0.018217318 0.0538138 0.038169406
000050 c8 e8 94 3d 22 3a bf bc 9c 86 77 3d b4 c3 4c 3d
       0.07270962 -0.02334315 0.060431108 0.049991325
000060 fc 0b 60 3d 0a 83 04 3d 47 e7 7e bd f8 b4 5c 3d
       0.05469893 0.03235153 -0.062232282 0.053883523
000070 a6 c3 49 bd 30 c6 56 bc 9e ba a3 3d ec 6c 4b 3d
       -0.04925885 -0.013108775 0.07994579 0.049664423
000080 64 69 d4 3c f6 a1 9f 3d b2 0f 3d bd 00 e7 79 3b
       0.02592916 0.077945635 -0.046157546 0.0038132071
000090 f4 94 a4 bd 90 76 79 3d 00 20 43 3a 00 c1 ec 39
       -0.08036223 0.060904086 0.0007443428 0.00045157224
0000a0 08 e6 3c bd 48 60 60 3d 42 d0 ae bc e0 24 03 bb
       -0.046117812 0.05477932 -0.02133954 -0.0020010993
0000b0 c4 f9 35 bd d4 b8 f4 3c 91 6f 9a bd df 05 8f bd
       -0.04442765 0.02987329 -0.07540811 -0.06983542
0000c0 58 6a 06 3d 0c c6 4f bd c4 1e d1 bc 00 f7 0f 3b
       0.03281626 -0.05072598 -0.025527366 0.0021967292
0000d0 24 e3 f9 3c 1a f2 8c 3d 7f 94 8e bd 40 82 a3 bc
       0.030503817 0.06882115 -0.06961917 -0.019959569
0000e0 cb 23 73 bd 88 9b 53 bc 8b 21 49 bd 10 b3 f0 bb
       -0.059360307 -0.0129154995 -0.049104255 -0.0073455647
0000f0 f0 b9 db 3c 13 c3 21 bd 8d 96 9d bd ec b2 b1 3c
       0.02682206 -0.039492678 -0.07694731 0.021691762
000100 80 bb 65 3a f4 8a 78 3d 4b 68 30 bd 12 5f 84 3d
       0.00087635964 0.06067939 -0.04306821 0.06463446
000110 9f 4d 82 bd 88 d6 6b 3c 10 88 7b 3d 22 2f e8 bc
       -0.06362461 0.01439441 0.061409056 -0.028342787
000120 a0 88 4f 3c e0 56 da 3c 04 58 45 3d 3e 9d a3 3d
       0.012666851 0.026652753 0.04817964 0.07988976
000130 24 6f 35 3d 50 f7 93 bc 48 9b 83 3d 80 46 a4 3b
       0.044295445 -0.018062264 0.06426102 0.005013287
000140 be 84 50 bd 90 38 85 bb cc 4e 68 3d 60 de 52 3b
       -0.050907843 -0.0040655807 0.05671577 0.0032176003
000150 42 d7 99 3d 01 1b 3d bd 90 01 8b 3d 70 7a f7 3c
       0.0751176 -0.04616833 0.067874074 0.03020975
000160 80 67 85 3a c6 47 a0 bc 3d e2 88 bd 50 40 89 3c
       0.001017794 -0.019565474 -0.066837765 0.0167543
000170 bf c3 87 bd 08 a1 87 bc d0 9a ad 3b f6 69 17 3d
       -0.066291325 -0.016556278 0.005297996 0.036966287
000180 50 25 59 bd c1 a5 2f bd 70 29 29 bc d2 12 a3 3d
       -0.0530141 -0.042882685 -0.010324821 0.07962574
000190 ec 34 5d 3d 13 1b 99 bd da 05 1d 3d b5 7e 9c bd
       0.05400555 -0.07475867 0.03833566 -0.07641355
0001a0 a8 d9 45 3d b8 08 44 bd a8 0b 67 bc 79 b2 23 bd
       0.048303276 -0.047859877 -0.0141019 -0.039965127
0001b0 00 94 37 bc f8 a1 94 bd 26 31 88 bd 06 2b fe bc
       -0.01120472 -0.072574556 -0.06649999 -0.031026375
0001c0 ec 28 47 3d 28 7e d1 3c 98 80 71 3d f0 8e b7 3c
       0.04862301 0.025572851 0.058960527 0.022407025
0001d0 88 17 a0 3d a8 11 7e 3d c8 b3 ea 3c 58 d9 44 bc
       0.07816988 0.062028557 0.02865018 -0.012014709
0001e0 f8 54 da bc 18 35 78 3d 31 e6 74 bd e0 37 3c 3b
       -0.026651844 0.06059751 -0.05978984 0.0028719828
0001f0 64 73 b0 bc 90 1d c1 3c 5f c2 21 bd 98 e7 f9 bc
       -0.021539398 0.023573667 -0.039492007 -0.03050594
000200 9c 54 8e bc 5c 9d 42 bd f6 d1 16 3d 6c ed 2a 3d
       -0.01737433 -0.04751335 0.036821328 0.04173033
000210 56 d9 8a 3d 56 31 43 bd 98 ff 6a bd 64 94 ae bc
       0.06779735 -0.047654472 -0.05737266 -0.021310993
000220 f1 9d 92 bd a4 78 88 bc 25 ec 32 bd b1 c0 39 bd
       -0.07159031 -0.016659088 -0.043682236 -0.04534978
000230 ca ef 1e 3d 28 ed 8a bd 94 72 6b bd 01 41 83 bd
       0.0388029 -0.06783515 -0.057482317 -0.06408883
000240 a0 a1 db 3c 3c ec aa 3c 45 a3 3f bd 80 20 03 ba
       0.026810467 0.020864598 -0.046786565 -0.00050020963
000250 8c 04 3c 3d a4 2a 1b 3d 7c de 53 3d 38 e0 36 3d
       0.045902774 0.037882462 0.05172585 0.044647425
000260 1c b3 9b 3d e5 b7 5d bd 59 c5 00 bd 9a 59 8a bd
       0.07602522 -0.054130454 -0.031438205 -0.067553714
000270 c0 63 bb 3a be 24 a8 bc cb 5e 03 bd a8 83 1c 3d
       0.0014296696 -0.020525333 -0.032072823 0.038211495
000280 5e d2 9b 3d a5 78 1e bd 61 1d 8c bd a0 58 d8 3c
       0.07608484 -0.038689274 -0.06841541 0.026409447
000290 f4 e7 ba 3c 08 18 82 3d 35 ec 5f bd 98 fd 3d 3c
       0.022815682 0.0635224 -0.054668624 0.011596106
0002a0 ac fa 8c 3d 28 fb fd bc 90 98 df 3b f2 59 a0 bd
       0.06883749 -0.03100355 0.006823607 -0.07829656
0002b0 8c f6 c6 3c 5a e7 92 3d e8 ae 85 bc 94 b4 98 3d
       0.024287485 0.07173033 -0.016318753 0.074563175
0002c0 60 9f d8 3b 04 02 1e 3d 20 1e 47 bc 85 55 31 bd
       0.006610796 0.03857614 -0.012153178 -0.04329445
0002d0 f4 1c 1d 3d fc b7 08 3d 0c eb e1 bc c0 0b b2 bb
       0.03835769 0.033378586 -0.0275779 -0.0054335296
0002e0 f5 8d 3d bd f4 58 57 3d 9c 12 47 3d e6 94 a1 bd
       -0.04627796 0.052575067 0.04860173 -0.07889728
0002f0 98 eb 65 bc 10 39 58 bd 28 8c 6e 3d 48 bd cc 3c
       -0.014033221 -0.052788794 0.058239132 0.0249926
000300 80 cf 6e 3b 10 bb 69 bc 18 7b 00 3d 64 bc 51 3d
       0.0036439598 -0.014265791 0.03136739 0.051205054
000310 e8 a1 87 bd 34 26 3c 3d 10 3a 5b bc 54 96 60 3d
       -0.06622678 0.04593487 -0.013380542 0.054830864
000320 1c 83 36 3d e0 00 48 bb d1 88 8e bd 72 a5 19 3d
       0.04455863 -0.00305181 -0.069596894 0.037511297
000330 0d 0b 65 bd c0 7c ce bb 80 a2 e4 bb 5c 46 96 bd
       -0.055918742 -0.0063014925 -0.0069773793 -0.07337639
000340 08 09 51 bc 3a 42 9b bd f0 48 86 3d 41 31 11 bd
       -0.012758501 -0.07580991 0.065568805 -0.035447363
000350 7b f5 1b bd 46 62 98 3d 4c 27 a4 3c e4 79 9a bc
       -0.038075905 0.07440619 0.02003827 -0.01885695
000360 32 4b 38 bd c0 4d e4 ba 3f a5 1e bd d1 22 98 bd
       -0.044993587 -0.0017418191 -0.03873181 -0.07428516
000370 db 58 3f bd 68 2f 01 3c 70 b9 12 3d 86 0f 97 3d
       -0.0467156 0.007884838 0.03582138 0.07376008
000380 c4 6a 46 bd 28 b6 b5 3c 64 98 cb 3c f0 a3 07 3c
       -0.048441663 0.022181585 0.024852939 0.008278832
000390 ee 9d 92 3d 22 1f d6 bc c0 97 14 3d c5 7a 8b bd
       0.07159029 -0.026137892 0.036277533 -0.06810526
0003a0 fc 5a 59 3d de b6 86 3d b0 d9 88 bb 60 8e a6 bd
       0.053065285 0.06577848 -0.004176341 -0.081326246
0003b0 77 f6 9e bd b4 c5 9e 3d ef 16 6b bd 10 49 2d bc
       -0.07761853 0.07752553 -0.057394918 -0.0105765015
0003c0 fe 64 43 bd 1a 5b 86 3d 38 08 9e 3c f4 76 36 3d
       -0.047703736 0.06560345 0.019291028 0.044547036
0003d0 9c e2 94 3d 58 3d 72 3d 00 79 38 3a 67 b0 77 bd
       0.07269785 0.059140533 0.00070370734 -0.060470965
0003e0 e0 ac 33 3b 58 d2 1b 3d 08 04 16 bc 18 55 89 bc
       0.0027416274 0.038042396 -0.009156235 -0.016764209
0003f0 d7 40 a2 bd f0 9e cb bc 50 cb ab bb 94 31 d6 3c
       -0.079225235 -0.02485606 -0.0052427426 0.026146688

conv2.bias f4 [16]
000000 86 2f a4 3d 52 02 84 3d 18 fa 5f 3d 3c ef 98 3c
       0.08016877 0.06445755 0.054681867 0.018668763
000010 c4 dc 49 3d cc 1b 48 3d 8c d6 88 bd 0c da 18 3d
       0.049282804 0.048854634 -0.066815466 0.03731732
000020 b0 53 23 bd e0 23 3a bc 40 28 37 bb 9c f5 b4 3c
       -0.039874732 -0.011361092 -0.0027947575 0.022089772
000030 88 a2 41 bc 70 9b 44 3d 54 0c f3 3c 80 08 0b ba
       -0.011818536 0.0479998 0.029668964 -0.0005303696

fc1.weight f4 [120, 400]
000000 00 f1 e6 3b e5 9c 2e bd 97 bc c4 bc 2e 4e 85 3c
       0.0070477724 -0.042630095 -0.024015708 0.01627263
000010 f9 b5 0a 3d c0 1b f8 3b b5 03 32 bd ba bf bf 3c
       0.03386495 0.0075716674 -0.043460567 0.023406852
000020 12 4b d8 3c 03 ba 45 bd 69 bd 17 3d b2 99 0f bd
       0.026402984 -0.048273098 0.03704587 -0.035058685
000030 08 9f 39 bc 3d 3a 14 3d 10 af 26 bd 43 2e b3 bc
       -0.01132942 0.036188353 -0.040694296 -0.021872645
000040 4a de ca 3c 40 35 8e 3b 0a 42 a7 3c 54 a4 45 bc
       0.024764199 0.004339844 0.020417232 -0.012063105
000050 00 d6 56 39 67 e1 f6 bc b0 ad f9 bc d6 ef 8c 3c
       0.00020488352 -0.030136777 -0.030478328 0.017204206
000060 a0 07 2a 3b c4 f1 93 bc d4 c0 67 3c d9 b0 18 3d
       0.0025944486 -0.018059619 0.014145095 0.03727803
000070 52 94 32 bd 20 3a 17 bc db e1 3f 3d ec 48 8d bc
       -0.04359848 -0.009230167 0.046846252 -0.017246686
000080 0f d4 32 3d 10 0d e1 bb d6 68 97 bc 0d 33 32 bd
       0.043659266 -0.0068680122 -0.018482607 -0.043505717
000090 62 b2 16 bd 1b 48 49 bd 23 aa f5 bc 70 a0 a7 bb
       -0.036791213 -0.04914103 -0.029988354 -0.005115561
0000a0 23 52 fd bc 38 df 1d 3c f2 63 ae 3c b0 3e 92 3b
       -0.030922955 0.009635739 0.021287892 0.0044630393
0000b0 3f d7 33 bd d3 d6 ff bc 4f 9c 1f 3d c0 79 c4 bc
       -0.043906447 -0.031230366 0.038967427 -0.023983836
0000c0 cd bb b6 bc 1a 16 e4 3c 8a ac fe 3c 89 d3 10 3d
       -0.022306347 0.02784257 0.031088132 0.035357986
0000d0 3e 75 d8 3c 1a 7b f1 3c d3 4d 41 bd a5 40 3e bd
       0.026423093 0.029477645 -0.04719336 -0.04644837
0000e0 0d 22 48 3d e0 e3 0d 3b b0 4a 38 3b ac b0 6c 3c
       0.0488606 0.0021650717 0.002812069 0.014446419
0000f0 63 ba a3 bc 40 fc 1c bc 2e c3 b2 3c e0 2f ab bc
       -0.019986337 -0.009581625 0.021821585 -0.020896852
000100 64 5b 71 3c ce 00 0b bd fe 6c 9a 3c 72 e4 8f 3c
       0.014731262 -0.033936314 0.0188508 0.017564986
000110 ea 62 cd 3c bb 55 23 bd 00 ea de 3b a0 91 11 bd
       0.02507158 -0.03987668 0.0068027973 -0.03553927
000120 5e 9d 0a bd 30 e6 eb bc 93 fb b3 bc 96 3b 0f bd
       -0.033841483 -0.028796285 -0.021970546 -0.034968935
000130 f8 45 06 bc 1c 2c 87 bc 8f f9 07 3d a8 b8 c9 3b
       -0.008195393 -0.016500525 0.033196982 0.006156046
000140 34 02 22 bc 92 7a d9 3c c3 b8 c2 bc 86 86 90 bc
       -0.009888221 0.026547704 -0.023769742 -0.01764227
000150 49 93 3e 3d 9d 74 40 3d 71 2f 38 3d 20 63 e8 bc
       0.04652718 0.04698621 0.04496712 -0.028367579
000160 00 ff b2 ba 66 ef b6 3c a8 a5 da bb b5 fc 44 bd
       -0.0013656318 0.022330951 -0.00667258 -0.048092563
000170 a6 7b c5 3c ee ef f8 3c 06 9a dc 3c 77 30 cd bc
       0.024106812 0.030387845 0.026928913 -0.025047524
000180 98 8d f4 bb 81 f8 47 3d d4 45 70 3c a0 45 29 bc
       -0.0074631684 0.048820976 0.014665086 -0.010331541
000190 77 e5 eb bc 50 c7 79 bb e8 65 3b 3c c7 2b 29 3d
       -0.02879594 -0.0038113184 0.011437871 0.041301515
0001a0 20 dd 44 3b 30 f9 db bb d8 4a 25 bd da 19 20 bd
       0.0030039027 -0.006713055 -0.04035458 -0.039087154
0001b0 c0 6a 5e bc 40 8d ab 3b 5f da 3e 3d 66 98 95 bc
       -0.013575256 0.005235344 0.046594974 -0.018261146
0001c0 52 17 df 3c 30 ef f5 bb b8 25 15 3c d2 1d f6 3c
       0.0272328 -0.00750532 0.009103231 0.030043516
0001d0 ba b2 c4 bc 58 a7 3f bc 28 3b 34 bd 40 e0 d1 ba
       -0.024011005 -0.011697613 -0.04400173 -0.0016012266
0001e0 6f 74 31 3d 98 de f2 3b 62 19 29 bd 98 50 91 3b
       0.04332393 0.007411789 -0.041283973 0.0044346564
0001f0 09 19 4a 3d 6f ac 36 3d 20 ef 15 bb f7 37 df bc
       0.04934028 0.04459804 -0.0022878125 -0.027248366
000200 9b cf 36 bd 40 01 7e 3a 0d 02 ed bc ea d7 ad 3c
       -0.04463158 0.00096895173 -0.028931642 0.02122112
000210 e0 96 00 bb c8 75 0c 3c 43 a1 38 3d 14 43 40 3c
       -0.0019621179 0.008573003 0.045075666 0.011734743
000220 9c a6 90 bc 33 ce cf bc 55 2f 41 bd 50 eb 21 3b
       -0.01765757 -0.025366878 -0.04716428 0.0024706908
000230 90 6e d8 bb 00 f6 1f 39 98 be 42 3c 90 b4 90 bb
       -0.006604977 0.00015255064 0.011886261 -0.004416056
000240 31 f4 3c 3d 00 74 0a bd e8 3e 12 bd 18 1e 86 3b
       0.046131317 -0.033802032 -0.035704523 0.004092943
000250 75 3c 39 bd b9 0e 09 3d 97 8a 39 3d 16 aa 08 bd
       -0.045223672 0.033461306 0.045298185 -0.03336533
000260 1d 8c 0a 3d aa d7 b6 3c 2b a1 28 bd a6 c6 d6 3c
       0.03382503 0.022319634 -0.041169327 0.02621777
000270 10 26 d4 3b 62 d9 8f 3c 50 20 31 3b f8 50 2f 3c
       0.006474264 0.01755971 0.0027027316 0.010700457
000280 72 92 cb 3c be d7 ae 3c 6c 5c 46 3c f3 af 45 3d
       0.024850104 0.021343108 0.012106996 0.0482635
000290 15 4c 0c bd b4 0c 52 bc fd 0b e4 bc 74 26 89 bc
       -0.034252245 -0.0128204115 -0.027837748 -0.016741969
0002a0 83 fc a4 bc 13 4d 24 3d d2 ea 97 3c ba 7b b5 3c
       -0.020139938 0.040112566 0.018544588 0.022153724
0002b0 e3 e9 01 3d 03 dc d2 bc 40 d8 b4 ba d7 b6 e5 bc
       0.031717192 -0.025739675 -0.0013797358 -0.028041286
0002c0 e0 cc 7d 3b 54 cf 8e bc 86 1e 2b bd af 02 02 3d
       0.0038726851 -0.017432846 -0.041777156 0.03174084
0002d0 9e cd fd 3c 5a 5d fb bc 32 d2 ba 3c be b0 ac 3c
       0.030981835 -0.030684162 0.022805307 0.021080371
0002e0 de 89 14 bd ad 57 0c bd da 69 85 3c ca fe bf bc
       -0.036264293 -0.0342633 0.016285826 -0.023436923
0002f0 98 33 06 bc 58 cb 83 3b 83 cb 42 3d f8 5a 0b bd
       -0.008191012 0.004022043 0.047557365 -0.0340223
000300 a9 15 08 3d ec 14 04 3c 72 8a b0 3c 80 c4 3f 3b
       0.03322378 0.008061629 0.02155039 0.002926141
000310 6a 26 b7 3c 9b 21 2c bd f2 c9 b3 3c 67 5f 0c 3d
       0.022357184 -0.042024236 0.021946881 0.03427067
000320 80 2f 15 bb c0 a5 cf ba dc dc 7f 3c 28 12 a3 bb
       -0.0022763908 -0.0015842244 0.015616622 -0.0049765296
000330 ac 38 16 bc 96 84 8a bc b7 ef 3f bd de 40 91 3c
       -0.009168785 -0.016908925 -0.04685947 0.017731126
000340 6a 23 ac bc a7 53 34 bd 60 7f 36 3b 06 77 0f bd
       -0.02101298 -0.04402509 0.0027846918 -0.03502562
000350 a6 db dc 3c 80 84 01 bc 39 51 3f 3d cb 09 32 3d
       0.026960205 -0.007905126 0.04670832 0.04346637
000360 ee a8 cf 3c 1e 05 de 3c 53 32 ea bc 34 02 5a 3c
       0.025349107 0.02710205 -0.02858845 0.013306189
000370 df ce 10 3d 18 99 41 3c 04 fb 52 3c fe c3 2c bd
       0.035353538 0.011816286 0.01287723 -0.0421791
000380 97 eb d8 bc 26 49 11 bd 60 bd 14 3b e1 ce 20 3d
       -0.026479525 -0.03547015 0.0022695884 0.039259795
000390 4c 1c 4f bc b0 27 fc bc 09 9f 0e 3d a8 94 b4 bb
       -0.012641024 -0.030780643 0.034819636 -0.0055108853
0003a0 a3 f8 1d 3d 17 af ed bc 0f af 2f 3d 11 14 16 3d
       0.038567197 -0.029014153 0.04289156 0.03664023
0003b0 ba 0e 9a bc d3 2a c3 bc 00 69 ca ba 70 88 89 3b
       -0.01880585 -0.023824131 -0.0015442669 0.004197173
0003c0 17 27 f7 bc a9 7c 1a 3d 9d 4e 11 bd 74 a3 32 3c
       -0.030170007 0.03771654 -0.035475362 0.010903228
0003d0 6c ae 59 bc e8 5e 63 bc 07 c5 c0 bc f9 b0 19 3d
       -0.013286214 -0.013877608 -0.02353145 0.03752229
0003e0 20 8f 5f bb d5 b1 40 bd 96 0e 14 bd f8 3a 36 bd
       -0.0034112409 -0.047044594 -0.036146723 -0.04448983
0003f0 00 14 62 ba 60 ed 8c ba 56 60 a7 3c 63 f9 fb bc
       -0.0008624196 -0.0010751896 0.020431679 -0.030758565

fc1.bias f4 [120]
000000 9a 1c df bc d0 c9 47 3b 00 9b 9c 39 b0 b6 e9 3b
       -0.027235318 0.003048528 0.00029870123 0.0071323738
000010 95 95 07 bd ea 0c 9a 3c a2 f5 db 3c de 75 a0 3c
       -0.033101637 0.018804986 0.026850525 0.019587453
000020 3b 77 3c 3d 9f e6 35 3d c0 21 41 bd 1c f0 6f 3c
       0.046012145 0.04440939 -0.047151327 0.014644649
000030 36 f5 88 bc 4c be 26 3c 94 75 7f 3c 30 d2 89 3b
       -0.016718488 0.010177206 0.015591998 0.0042059645
000040 1b bf 1a 3d 58 c9 eb bb 15 f7 09 bd 20 a4 34 bc
       0.03777991 -0.007195633 -0.0336829 -0.011025459
000050 88 49 43 3c c0 33 d7 bc ef eb 15 3d 72 81 b3 3c
       0.011919387 -0.026269794 0.036601957 0.02191231
000060 4d dd af bc 51 98 0e 3d e0 81 44 bc 1e 8c f3 3c
       -0.02146783 0.03481323 -0.011993855 0.029729899
000070 70 00 c0 bc f4 78 0d 3c 2d 65 b9 bc aa e3 a3 3c
       -0.023437709 0.0086347945 -0.022631252 0.02000602
000080 80 ba 3c ba 75 ef 48 bd 4c 7a 67 bc fe 17 9c 3c
       -0.00071994215 -0.04905649 -0.014128279 0.01905441
000090 58 cf 9e 3b 20 9f e7 bc c0 ca 8d 3b 07 85 34 3d
       0.0048464946 -0.028274119 0.004327148 0.044072177
0000a0 d4 0f 39 bc 8d bb d0 bc e7 33 9b bc 90 1f dc 3b
       -0.011295278 -0.025480056 -0.018945647 0.0067176297
0000b0 33 86 1e bd 13 1b 28 bd 7d d5 47 bd c0 99 af 3a
       -0.0387022 -0.041041445 -0.048787583 0.0013397262
0000c0 a0 60 32 bc 02 ea d5 3c 0d cd e7 bc c0 cb 2a 3c
       -0.010887295 0.02611256 -0.028296018 0.010424554
0000d0 c0 02 4c bd 63 f9 15 bd 82 0c bf 3c 8e 06 f6 3c
       -0.04980731 -0.036614787 0.023321394 0.030032422
0000e0 37 fb bb bc f2 b9 bd 3c 34 a4 0b bc 90 c9 93 bc
       -0.022946937 0.023159955 -0.008523036 -0.018040448
0000f0 be c8 0c bd ba 97 87 3c d2 c4 00 bd ad f9 26 bd
       -0.03437113 0.016551841 -0.031437702 -0.040765453
000100 70 ad 91 bb e0 41 31 3c 73 6d 32 3d 48 73 2a 3c
       -0.004445724 0.0108189285 0.04356141 0.010403462
000110 c2 59 c4 3c e8 07 21 bd 22 ef e9 3c 9d 06 0e 3d
       0.023968581 -0.03931418 0.02855641 0.034674276
000120 f0 e5 9f bc a0 c0 ac ba 80 2d b7 3b f3 e2 f3 bc
       -0.019518822 -0.0013179965 0.005590141 -0.029771304
000130 7d e1 ba bc 1d 2e bf bc 52 09 37 bd 69 1e 22 3d
       -0.0228126 -0.023337418 -0.044686623 0.039579783
000140 77 03 47 bd de 6c eb 3c fd 46 1d bd 40 5c d0 3a
       -0.04858729 0.028738435 -0.038397778 0.0015896633
000150 22 c2 ce 3c c9 01 35 3d 6f 84 2d bd 96 93 8b 3c
       0.025239054 0.044191156 -0.042362627 0.017038148
000160 91 ab 25 3d 9a f2 fe 3c 27 91 fd bc da e0 0e bd
       0.04044682 0.03112154 -0.030953003 -0.034882404
000170 34 28 23 bc f3 b4 0f 3d dd dd 3d 3d 77 73 1c 3d
       -0.009958316 0.035084676 0.046354163 0.038196053
000180 20 0f 6b bb 61 4d 25 3d 18 14 9c bb dc ce 00 bd
       -0.003586717 0.040356997 -0.0047631375 -0.031447276
000190 3e c5 f7 3c ba a4 ec bc 58 20 47 bd 18 44 c4 bb
       0.03024542 -0.028887141 -0.04861483 -0.0059895627
0001a0 90 56 ae bc 5d 04 ae bc 57 9b b5 bc 09 e8 14 3d
       -0.02128151 -0.021242315 -0.022168798 0.0363541
0001b0 3b 75 11 3d 0a a2 9a bc 21 0f 26 3d a1 7b 02 3d
       0.03551219 -0.018876094 0.04054177 0.031856183
0001c0 c0 b3 0a bd 29 12 08 3d d0 ed d1 bb b6 3a 88 3c
       -0.03386283 0.033220444 -0.0064065233 0.016629558
0001d0 18 d3 8f bb 68 8a 86 3b 1b 60 0f bd 18 82 24 bc
       -0.004389178 0.004105855 -0.035003763 -0.010040782

fc2.weight f4 [84, 120]
000000 e8 c6 0b 3c 60 2c 5e bc 84 f1 63 bd 40 59 86 ba
       0.00853131 -0.0135603845 -0.05565025 -0.0010249987
000010 60 60 d4 3c ec 83 3b 3d eb fd 1f bd b9 af 24 bd
       0.025924861 0.045780107 -0.039060514 -0.040206645
000020 3c 70 ae 3d d6 48 5e bd 38 26 1b 3d ce 96 02 bd
       0.08517501 -0.05426868 0.037878245 -0.0318821
000030 f8 bd 3f 3c 54 8e 17 3d 70 a9 a9 3c 8a df 97 bd
       0.011703007 0.03700097 0.020710677 -0.074156836
000040 21 61 88 bd 38 1b d7 bc 97 28 2a bd 50 45 4a 3c
       -0.06659151 -0.026258096 -0.041542616 0.012345627
000050 3a 03 8e 3d 88 d4 7e 3d 24 de 31 3d 28 c7 d5 3c
       0.06934209 0.062214404 0.04342474 0.026095942
000060 b0 75 92 bb b6 59 99 3d b6 ca 9a bd ba 08 7d bd
       -0.004469596 0.07487814 -0.07558195 -0.0617759
000070 da 93 83 3d 9a 42 b7 3d d0 7b 79 3c d1 5d 16 bd
       0.06424685 0.0894825 0.015227273 -0.036710564
000080 54 a7 96 3c ec 0c 8e bd 16 b1 ac 3d 88 ec 6a 3d
       0.018390335 -0.069360584 0.08432214 0.05735448
000090 50 d7 90 3d 30 3c a7 3b e8 70 ba 3c 18 9f f6 3c
       0.070723176 0.0051036105 0.022758916 0.030105159
0000a0 be bc b9 bd 12 71 a6 bd 0a 04 a3 3d 4b 80 af bd
       -0.09069203 -0.08127035 0.07959755 -0.08569392
0000b0 20 81 34 3c d4 ab c3 bc c3 6d 2d bd 6c a1 e1 bc
       0.011017114 -0.023885645 -0.042341005 -0.027542792
0000c0 d0 0c 77 3d 58 d5 e7 bc c0 13 46 3b 48 b7 49 bc
       0.060314953 -0.028299972 0.0030224174 -0.012311764
0000d0 90 91 b9 3d a0 cf 7f 3c 10 2d 69 3d 60 34 b6 3d
       0.09060967 0.0156134665 0.05692774 0.088967085
0000e0 27 91 96 bd 8d ee a2 bd e8 d5 64 3d 74 50 62 3d
       -0.07351904 -0.07955656 0.05586806 0.055252507
0000f0 24 1d 9a 3d 78 21 92 bc 0d 68 a1 bd 30 ef eb bb
       0.075250894 -0.017838225 -0.07881174 -0.007200144
000100 4e 2f a7 3d 26 16 4c bd f8 e3 08 3c 88 98 47 3d
       0.081633195 -0.04982581 0.008355133 0.04872945
000110 9e e4 a1 3d c0 58 ff 3c 8a c8 8a 3d 90 a3 fe 3c
       0.079049334 0.031170249 0.06776531 0.031083852
000120 19 58 ab bd a2 19 ac bd 30 f4 a3 3b 68 db 71 3d
       -0.08366413 -0.084033266 0.0050034747 0.059047133
000130 60 94 6a 3d 9a dc 0b bd 7c 1b d9 3c c6 85 9a bd
       0.057270408 -0.03414593 0.026502363 -0.075450465
000140 d1 e8 69 bd f4 27 55 3d 53 3e 1b bd 44 62 ab bd
       -0.057106797 0.052040055 -0.037901234 -0.08368352
000150 90 9a cd 3c 12 1b 38 bd 74 e2 8e bd 8e d7 b6 3d
       0.025098115 -0.04494769 -0.06976786 0.089278325
000160 8e b1 5b bd 28 96 b2 3d 70 e1 8c bc ec d8 30 bd
       -0.053636126 0.08720046 -0.01719734 -0.043175623
000170 18 1a 89 3d fc 38 42 bd 40 5c 9f 3d 00 4e f7 3b
       0.0669443 -0.047417626 0.07781267 0.00754714
000180 fe 15 91 bd ed c1 6c bd 18 e1 1e bc 24 ac 84 3d
       -0.07084273 -0.05780213 -0.009697221 0.06478146
000190 d8 2e ae bc 88 78 85 bd 0e 1e 57 bd 30 83 4c 3d
       -0.021262571 -0.0651713 -0.052518897 0.049929798
0001a0 00 73 77 3b d3 65 a9 bd 4c 66 a6 3d 40 9f 00 3d
       0.0037757754 -0.082713746 0.0812498 0.031401873
0001b0 ac 23 99 bc ac 6c a5 3c 04 a0 54 3d 2e 1a 20 bd
       -0.018693767 0.02019342 0.051910415 -0.039087467
0001c0 08 a6 b9 3d 7d c8 06 bd a8 bc a8 3c 58 ac 06 3c
       0.09064871 -0.032906044 0.02059777 0.008219801
0001d0 6e 00 b8 3d 94 5f 52 3d 98 bd 9e bd 04 80 c0 bc
       0.08984457 0.05136068 -0.07751006 -0.023498543
0001e0 58 1c 44 bc 75 d3 00 bd 66 d4 b5 3d f7 09 af bd
       -0.011969648 -0.03145166 0.088784024 -0.085468225
0001f0 cc e6 44 3d 10 05 43 bc e2 61 a1 3d e1 ae 3d bd
       0.048071668 -0.011903062 0.07879998 -0.046309356
000200 30 4e 9e 3d e0 df ae bc d4 53 f0 bc 62 77 03 3d
       0.07729757 -0.021346986 -0.029336847 0.032096274
000210 3c 33 1a 3d 9e 99 39 bd 00 c8 c9 ba 40 1f 2a 3d
       0.037646517 -0.045312516 -0.0015394688 0.04153371
000220 af 16 94 bd 60 f1 39 3d a3 42 91 bd 7a 7b 8e 3d
       -0.07230889 0.04539621 -0.07092788 0.06957145
000230 39 0d 6f bd b8 cb 0f 3d 39 18 41 bd 1c 48 35 bd
       -0.05836222 0.03510639 -0.04714224 -0.044258222
000240 dc 0d d0 3c 00 6b 13 3b 4b 54 8f bd 00 1d b9 bd
       0.025397234 0.0022494197 -0.069984995 -0.090387344
000250 c8 fd b6 3c d0 b7 2a 3d b8 99 a8 3d 10 70 ef 3b
       0.02233781 0.041679204 0.082324445 0.00730706
000260 bc f2 83 bc 54 19 a6 3d 1f 27 24 bd bc 3b 12 3d
       -0.016106956 0.081103 -0.04007637 0.0357015
000270 c8 39 83 bd 50 f7 cd 3b 17 74 a6 bd 5c db a2 bc
       -0.06407505 0.0062855855 -0.08127611 -0.01987999
000280 c4 d1 ec 3c 10 3b 70 3d 30 99 af 3d 10 2b 8f 3d
       0.028908618 0.058650076 0.0857414 0.069906354
000290 e8 2f 55 bc 38 f2 4f bc 30 17 9c bc f1 b9 98 bd
       -0.01301191 -0.012692027 -0.019054025 -0.074573405
0002a0 28 5f 9a 3d 74 43 48 3d 9b 7d 98 bd 6c b3 aa 3d
       0.07537681 0.048892453 -0.07445832 0.08335003
0002b0 fb fa 14 bd 1b 0d 9d bd 80 fd 2a 3d b0 f0 9e 3d
       -0.036372166 -0.07668515 0.041745663 0.07760751
0002c0 ee 26 82 3d 99 df 69 bd 00 5e cd bb b8 0d b2 3d
       0.063550815 -0.057098005 -0.006267309 0.08694023
0002d0 80 28 3b 3c 1a 34 9e bd 6a 2e ba 3d 82 f6 ab 3d
       0.01142323 -0.07724781 0.09090884 0.08396627
0002e0 3c c1 83 bd ea 7f b2 3d ee 4d 03 3d dc 03 f0 3c
       -0.06433341 0.08715804 0.03205674 0.029298715
0002f0 bc 01 e2 bc e0 58 51 3b 80 5c ea 3a d8 b8 66 3d
       -0.027588718 0.0031943843 0.001788035 0.056328624
000300 ec e0 35 3d 4f eb ae bd b2 8f fa bc b4 45 6a bd
       0.044403955 -0.08540975 -0.030586097 -0.05719538
000310 b8 40 64 bd 84 c8 21 3d 20 7f 2b 3b 40 a4 8f bb
       -0.055725783 0.039497867 0.0026168302 -0.004383594
000320 8d 76 aa bd 34 7a b0 3c e0 ab b2 bb ca 2c 9f bd
       -0.08323393 0.021542646 -0.005452618 -0.07772215
000330 18 17 48 3c e8 1d 2f bc 0e f5 7c bd 19 2d ba bd
       0.012212537 -0.010688283 -0.06175714 -0.09090633
000340 f0 11 7d 3c 50 59 51 3d 3f 30 ad bd e0 b1 a3 3d
       0.015446171 0.051110566 -0.08456468 0.07992911
000350 60 e3 80 3c e4 60 54 bd 90 be 67 3c 0c c5 3a 3d
       0.01573342 -0.051850215 0.014144555 0.045598075
000360 38 bf 42 3d 00 1a be 39 a0 4c 52 3d 08 fc 7c 3d
       0.04754564 0.00036258996 0.051342607 0.061763793
000370 12 dc 98 3d ec 17 7d 3d b8 ff 7b bc e8 a9 a7 bc
       0.0746385 0.06179039 -0.015380792 -0.02046676
000380 c4 c3 f3 bc e4 1b 78 3d 8a c0 a2 3d 64 0e c2 bc
       -0.029756434 0.060573474 0.0794688 -0.023688503
000390 22 0e 9f 3d 70 de 83 3d 1e f2 a0 3d d5 af 83 bd
       0.077663675 0.06438911 0.0785868 -0.06430022
0003a0 38 a0 3f 3c 18 40 84 bc 76 7f b3 3d 78 50 76 3d
       0.011695914 -0.016143844 0.087645456 0.060135335
0003b0 be 04 ff bc c0 5f 82 bc 6a 9b 28 bd 48 47 b4 bc
       -0.031130191 -0.015914798 -0.04116384 -0.022006646
0003c0 c5 d4 49 bd c0 d5 a7 bb 8a 66 99 3d 68 5e 2d 3d
       -0.04927518 -0.0051219165 0.07490261 0.04232636
0003d0 c6 47 8b 3d 88 aa ef 3c f4 2e 87 3d 1c 47 25 3d
       0.06800799 0.02925612 0.066007525 0.04035102
0003e0 a0 37 4f 3d e2 e7 18 bd 80 cc a3 bc 68 b3 a2 3d
       0.050590158 -0.037330516 -0.019994974 0.07944375
0003f0 0e f4 73 bd a8 67 63 3c 1a af 80 3d 4f b0 17 bd
       -0.05955892 0.013879694 0.06283398 -0.037033375

fc2.bias f4 [84]
000000 b0 59 cf 3b b8 25 29 3d 04 e0 86 3d bd 44 ab bd
       0.0063278303 0.041295737 0.06585696 -0.0836272
000010 b0 d0 8a 3d a6 8c 94 bd 9e 10 11 bd 10 28 ab 3c
       0.06778085 -0.07253389 -0.035416238 0.020893127
000020 da 18 30 bd 00 39 ab bc 54 52 b5 3c 9c 5c b5 bd
       -0.04299245 -0.020901203 0.022133984 -0.088555545
000030 07 0e a3 bd fc 9d bd bc 40 19 f2 ba 80 47 49 3d
       -0.0796166 -0.023146622 -0.001847066 0.049140453
000040 90 24 0e bd f4 51 a2 3d 92 0f fb bc b8 db 03 3c
       -0.034702837 0.079257876 -0.030647073 0.0080479905
000050 50 f0 e3 3c 54 b3 c1 3c d8 05 39 3c 40 7e 81 bc
       0.02782455 0.02364508 0.011292897 -0.015807271
000060 fc e9 0a 3d c8 aa e1 bc 88 fb 2d bd a3 be 21 bd
       0.03391455 -0.027547255 -0.042476207 -0.039488446
000070 c4 33 30 3d ac a5 04 3d a0 44 aa 3c 46 e5 80 3d
       0.043018118 0.03238456 0.020784676 0.062937304
000080 02 c6 85 3d b8 4a 8b bd 16 d2 80 3d 81 b1 72 bd
       0.065319076 -0.06801361 0.06290071 -0.059251312
000090 c0 cc 22 3c f2 57 95 3d 3f bd ac bd 9f 73 8a bd
       0.0099365115 0.07292165 -0.08434533 -0.06760334
0000a0 e4 9c a3 bd 6c 74 af 3d 40 33 52 3d 82 71 ba bd
       -0.07988909 0.085671276 0.051318407 -0.09103681
0000b0 98 23 28 3d 0b 85 23 bd 48 26 9e bd f0 8c ba bc
       0.04104957 -0.0399218 -0.07722145 -0.022772282
0000c0 7f 83 a1 bd d5 90 b7 bd bc 6c 7d 3d 6c 68 75 3d
       -0.07886409 -0.089631714 0.061871275 0.059914038
0000d0 a6 81 b1 3d be ba 04 3d c0 2b c5 bb 1c 08 bf 3c
       0.086673066 0.032404654 -0.0060171783 0.023319297
0000e0 50 f0 6f bd e8 2d 35 3c 1a b1 4e bd d8 84 29 3d
       -0.05857879 0.011058308 -0.050461866 0.041386455
0000f0 22 1d b2 bd 1c 81 af bd c4 98 d7 3c e0 48 55 3b
       -0.08696963 -0.085695475 0.026317962 0.0032544658
000100 1d 47 3b bd c0 41 bb 3c 30 82 b4 bb 91 2d 62 bd
       -0.045722116 0.0228585 -0.0055086836 -0.055219237
000110 67 0e a1 bd c0 80 28 3b c0 d2 ac ba 7a 79 94 3d
       -0.07864075 0.0025711507 -0.0013185367 0.07249732
000120 a0 61 5d bc 40 12 21 bb 58 c8 b7 bd b6 f1 9e bd
       -0.013512045 -0.0024577528 -0.089737594 -0.077609465
000130 74 b1 31 bd 60 17 de bc dc 13 6b 3d f2 3f 17 bd
       -0.043382123 -0.027110755 0.057391986 -0.036926217
000140 90 b3 6c bc 74 30 88 3c d1 51 6c bd f0 15 34 3d
       -0.014447108 0.016624667 -0.057695214 0.043966234

fc3.weight f4 [10, 84]
000000 a1 39 ab 3d a2 56 a5 bd 20 5f 25 bb 78 b0 19 3c
       0.08360601 -0.080731645 -0.00252337 0.009380452
000010 36 74 79 bd b0 4a 20 bd 7c 74 d5 bc 72 fd 81 bd
       -0.060901843 -0.039133728 -0.02605652 -0.06347169
000020 16 93 98 bd f0 05 a3 bb 60 0a 10 bd 58 80 3b 3c
       -0.074499294 -0.004975073 -0.035166144 0.011444174
000030 7a c9 73 3d ba 32 c3 bd 3a 91 c3 bd bd 96 96 3d
       0.059518315 -0.0953116 -0.09549184 0.0735297
000040 0c 46 ad bd 57 e3 81 3d 92 a5 4b 3d 27 a4 8c 3d
       -0.08460626 0.0634219 0.049718447 0.06867247
000050 35 03 82 bd d7 b9 8c 3d a5 9c 90 bd 63 87 db 3d
       -0.06348268 0.06871384 -0.070611276 0.10719182
000060 c8 b3 7c 3c a6 f2 56 3d 86 04 42 3d 26 f3 4a 3d
       0.015423723 0.0524775 0.047367595 0.04954829
000070 d3 31 a5 3d 34 b5 9c bd d4 b0 da 3c 84 5d df bd
       0.08066144 -0.07651749 0.026695646 -0.109065086
000080 42 eb c0 bd ee cd a7 bd e7 f9 b4 3d d2 da 9e bd
       -0.09419872 -0.08193575 0.088367276 -0.077565804
000090 28 8c 50 bc 24 38 b8 bc ce 3d ca bd ca db 76 3d
       -0.012728728 -0.022487707 -0.098750696 0.0602682
0000a0 d1 fa 90 3d f6 2e 14 bd b4 7a 88 bc 31 d4 87 3d
       0.070790894 -0.036177598 -0.016660072 0.06632269
0000b0 f9 e0 be 3d 6a 6e 05 3d a2 9c b0 bd 4a e6 a8 bd
       0.09320254 0.032576002 -0.08623625 -0.08247049
0000c0 d2 80 8a bd 01 af be 3d 50 8f e3 bc 09 cb b5 3d
       -0.06762852 0.09310723 -0.027778298 0.088766165
0000d0 20 56 7f 3b c2 2a 2c 3d 2a 77 1b 3d 49 81 8c bd
       0.0038961247 0.042032965 0.03795544 -0.06860597
0000e0 fa 40 9f bd 0c 59 a3 3c 4f 66 9d 3d df 9b 99 3d
       -0.07776065 0.019939922 0.076855294 0.07500433
0000f0 fc 34 ba bd dc 05 ff bc 03 dc a7 3d 51 ce d6 bd
       -0.09092137 -0.031130724 0.08196261 -0.104885705
000100 d2 1b 47 3d 93 1a 83 bd ef ed 9f 3d 94 a6 45 bd
       0.048610516 -0.06401553 0.07809054 -0.048254564
000110 06 af b9 bd ca 61 09 3d 61 ad ae 3d 83 06 cf 3d
       -0.09066586 0.033540525 0.08529163 0.10108664
000120 71 df bf 3d 06 68 42 3d 87 4b db bd 76 a2 70 bd
       0.0936879 0.047462486 -0.10707765 -0.058748685
000130 72 30 69 3d 3a 3d b4 bd 58 80 be bc 60 c8 a0 3b
       0.056930967 -0.088007405 -0.023254558 0.004906699
000140 24 22 ba bc c2 4c 78 3d e0 27 7d 3c 84 70 d2 3c
       -0.022721358 0.060620077 0.0154514015 0.025688417
000150 59 56 80 bd 2e 97 87 bd f9 e6 b8 bd dd 1e 8a 3d
       -0.062664695 -0.06620632 -0.090284295 0.06744168
000160 89 b4 a4 3d 3c 06 a6 3c 76 86 3e 3d c0 26 df bc
       0.08042247 0.020266645 0.04651495 -0.027240157
000170 d8 5c 9a bd 11 e5 c1 3d c5 dd b2 3d 08 6e a7 bc
       -0.0753724 0.09467519 0.087337054 -0.02043821
000180 06 ed b9 bd 60 04 a2 bd 6b 7f b1 bd fa d1 4c 3d
       -0.09078412 -0.07910991 -0.08666881 0.050004937
000190 1f ec 57 bd 38 50 ec bc 80 97 c1 bc 4c 92 89 3c
       -0.052715417 -0.028846845 -0.023631811 0.016793393
0001a0 ec 60 1b bd fc c8 d4 bd f4 c7 0d bd a0 a8 4b bb
       -0.03793423 -0.10389897 -0.03461452 -0.003107585
0001b0 00 70 bd b8 97 6f d9 3d 00 4f 5f bb 00 8c 91 38
       -9.033084e-05 0.10616987 -0.0034074187 6.940216e-05
0001c0 ec fc ee 3c 0a 09 23 bd 67 9c 7e bd 31 14 99 3d
       0.029173337 -0.039803542 -0.062160876 0.07474554
0001d0 bb 2a cd 3d d7 4d db 3d 18 e6 09 bc 0e b6 1e 3d
       0.10017916 0.10708206 -0.008416675 0.03874784
0001e0 0c 5d 8c bd 69 96 d3 3d ec 77 b5 3c e1 12 c5 bd
       -0.06853685 0.10331423 0.02215191 -0.096227415
0001f0 40 fe c1 bc 4c e4 c6 bc 0e 7f 85 bd 00 1a 57 3b
       -0.023680806 -0.024278782 -0.065183744 0.0032821894
000200 52 35 97 bd fd f2 db bd 0e 38 25 3d 85 ab 8b bd
       -0.07383217 -0.10739706 0.04033666 -0.06819824
000210 38 67 c8 bc f8 f9 7c bd 7e c6 35 3d 52 16 20 3d
       -0.024463281 -0.061761826 0.04437875 0.039083786
000220 06 81 0e bd b4 b5 d5 bc ee 78 43 3d d4 e3 e9 3c
       -0.034791015 -0.02608762 0.04772275 0.02855102
000230 b6 4e 6e 3d cd 75 a0 bd 5e b8 36 3d 75 19 a5 bd
       0.058180533 -0.07834969 0.04460942 -0.08061496
000240 ac 7e ab 3c 8f 8e 85 3d a3 0e ca bd 65 72 8a 3d
       0.020934425 0.065213315 -0.09866073 0.067601
000250 77 b5 b6 bd 68 cb 0b 3c 01 35 93 3d 27 bc 8a 3d
       -0.089213304 0.008532383 0.07187844 0.067741685
000260 aa 73 93 bd a9 77 dd 3d 0b b3 8c 3d 34 cc dc 3c
       -0.071997955 0.10813839 0.06870087 0.02695284
000270 f2 93 bb bd 62 cc ae bd 90 cf 9c bb 56 a9 10 3d
       -0.09159078 -0.08535077 -0.0047854856 0.03531774
000280 14 5d 9b bd 00 3b fd bc 71 be a7 3d 69 36 a2 3d
       -0.075861126 -0.030911922 0.08190621 0.07920534
000290 cf 34 86 3d ba c2 30 3d 40 91 99 bb d5 63 cf 3d
       0.06553041 0.043154456 -0.0046865046 0.10126463
0002a0 3f 20 ce 3d 24 4f b7 3c 50 2b ad bc 50 28 25 bc
       0.10064744 0.022376604 -0.021138817 -0.010080412
0002b0 69 b9 ac bd fa 62 78 bd 77 d8 86 3d dc 55 b3 bc
       -0.08433802 -0.060641266 0.06584256 -0.021891527
0002c0 2d 9b 9e 3d 36 e3 3d 3d 5f e9 bb bd 20 6a 62 3c
       0.07744441 0.046359263 -0.091753714 0.0138192475
0002d0 a1 74 dd 3d 20 46 d1 3b ac 9c c4 bd 28 c0 1c bc
       0.10813261 0.0063865334 -0.09600195 -0.009567298
0002e0 b4 24 86 bc 84 cc 24 bd 61 6e 43 bd 00 8e 84 3b
       -0.016374923 -0.040234104 -0.047712687 0.004045248
0002f0 2a 1b 97 bd 18 1c cb bc fa 45 67 3d d0 93 67 3c
       -0.07378228 -0.02479367 0.05646322 0.014134362
000300 4a b7 2c 3d 94 be 9b bd 24 35 06 bd cb 14 ac bd
       0.042166986 -0.07604709 -0.032765523 -0.084024034
000310 26 58 1c 3d 20 a2 87 bd b7 09 50 bd 7e 27 69 bd
       0.038170002 -0.0662272 -0.050790515 -0.05692243
000320 06 50 21 3d e0 f8 6b 3c 1c 65 f3 3c 2a 73 02 bd
       0.039382957 0.014402598 0.029711299 -0.03184811
000330 19 7c 44 bd a2 e8 bb bd 04 70 b4 3c d6 3e 0f bd
       -0.04796991 -0.091752306 0.02202607 -0.034972034
000340 e5 a0 b9 3d 14 b2 c5 3c c1 ff 95 3d 78 51 5a bc
       0.09063891 0.024132766 0.07324172 -0.013325088
000350 74 c4 ae bc 20 1e e2 bb d3 47 b9 3d 5f a1 d8 3d
       -0.02133391 -0.006900564 0.090469025 0.10577654
000360 44 1e ce bd 40 44 43 3b c0 72 d9 bc 0e dc 53 3d
       -0.100643665 0.002979532 -0.026543975 0.051723532
000370 62 8b 4a bd 85 b1 ba 3d 67 d8 88 3d c3 2e 71 bd
       -0.049449332 0.091158904 0.066819005 -0.058882486
000380 2c 29 99 bd c2 6e 89 bd 00 3d 39 bd da 9d 1c 3d
       -0.07478556 -0.067105785 -0.04522419 0.038236476
000390 e6 5c 13 bd e2 8e 32 bd 60 2b 0e 3c 04 2c b6 3c
       -0.035977267 -0.043593295 0.008677334 0.022237785
0003a0 38 13 35 bc ea aa d2 bd 75 72 c9 3d d6 4c 0c 3d
       -0.011051945 -0.102865055 0.09836284 0.034252964
0003b0 1c 0e be bc 48 e7 1d 3c 5e 56 5c 3d 35 21 da 3d
       -0.023200087 0.009637661 0.053793304 0.10650865
0003c0 c0 11 a0 3b b4 66 f0 bc 50 50 31 3c d6 7c a7 bd
       0.0048849285 -0.029345848 0.010822371 -0.081781074
0003d0 92 44 1d 3d 7a df a5 bd 9b bb 97 3d 9c f1 c2 bd
       0.038395472 -0.080992654 0.0740883 -0.095187396
0003e0 e7 1c 55 bd 08 cb 1f 3c 84 73 ce 3c fe d4 4d bd
       -0.052029517 0.009752996 0.025201567 -0.050251953
0003f0 1a 52 c7 bd 77 61 dc 3d c3 10 c4 3d 4e 90 b4 bd
       -0.097324565 0.107607774 0.095735095 -0.088165864

fc3.bias f4 [10]
000000 c2 fc cb bd 12 a5 18 3d 91 ad 97 3d 2e c6 44 3d
       -0.09960319 0.0372668 0.07406152 0.04804056
000010 76 20 51 3d a0 e2 c8 3b 9b 22 8b 3d 64 4c 4d bd
       0.051056348 0.0061305314 0.0679371 -0.05012168
000020 bc fa 78 bd c2 6e b5 bd
       -0.060785994 -0.08859016
